checkpoints/DPQAM64_recon_16384_2_16_False_0.3/checkpoint.pth (torch, 351342 bytes, 104 tensors)

Transformer_model_time.encoder.weight f4 [16, 12]
0	0xbe6109db	-0.21976416
1	0xbb975b00	-0.0046190023
2	0x3e05589a	0.1302208
3	0x3dee814f	0.116457574
4	0x3cf09796	0.029369157
5	0xbe47280e	-0.19448873
6	0xbe882e1e	-0.26597685
7	0x3e896a38	0.2683885
8	0xbdfd7504	-0.123758346
9	0xbe6ce610	-0.23134637
10	0x3e280733	0.16408996
11	0xbe8ae1ea	-0.27125484
12	0x3e4837ab	0.19552486
13	0xbe573010	-0.21014428
14	0x3e1c129f	0.15241478
15	0xbd909e1c	-0.07061407
16	0x3c61bca0	0.013777882
17	0xbe04c925	-0.12967356
18	0x3e210aba	0.15726748
19	0x3dfaacbc	0.12239978
20	0x3e3c08ed	0.1836278
21	0xbdeaff5a	-0.11474486
22	0x3e8cf7e5	0.2753288
23	0x3c810f23	0.015754288
24	0xbd83324a	-0.06406076
25	0xbe893a57	-0.26802322
26	0x3e50051f	0.20314454
27	0xbe7c929d	-0.24665304
28	0xbe416c48	-0.18888962
29	0xbddce820	-0.10786462
30	0x3ddf1e77	0.108944826
31	0x3dd00d8a	0.10158832
32	0x3e4a6d9d	0.19768377
33	0x3be298c7	0.006915185
34	0x3e1d1aa4	0.15342194
35	0x3e4d0fa4	0.20025498
36	0xbe908416	-0.28225774
37	0xbe7eecc0	-0.24895
38	0xbe933379	-0.28750208
39	0xbe5b4d69	-0.21416248
40	0x3e08f079	0.13372983
41	0x3e841b58	0.25802112
42	0x3dbcd2f6	0.09219925
43	0xbe593b49	-0.21214022
44	0x3e0350f2	0.12823847
45	0x3e1c12fa	0.15241614
46	0x3e7bd95f	0.24594639
47	0xbe8d38a0	-0.27582264
48	0xbce4855d	-0.027895624
49	0xbe0c8d48	-0.1372577
50	0x3e878943	0.2647191
51	0x3e325b9a	0.17417756
52	0x3d0dccbb	0.034619074
53	0x3bb8d3c9	0.005640481
54	0x3e076ab2	0.13224295
55	0xbe66ee1b	-0.22551768
56	0xbc682b4c	-0.014170479
57	0xbe51996e	-0.20468685
58	0x3de979ad	0.11400161
59	0x3dbfc59b	0.09363862
60	0xbe77a567	-0.2418419
61	0xbc56198b	-0.013067613
62	0x3e011fcf	0.1260979
63	0x3e0c47cb	0.13699262
64	0x3e8aba90	0.2709546
65	0xbe823e41	-0.2543812
66	0xbdab1304	-0.08353236
67	0xbdd945f1	-0.106090434
68	0xbe797595	-0.2436126
69	0xbe8f6634	-0.28007662
70	0xbe4e910c	-0.20172518
71	0x3e02092e	0.12698814
72	0xbe823eb0	-0.25438452
73	0xbe03b251	-0.12860991
74	0xbe3b9363	-0.18317942
75	0xbe66a3c7	-0.22523414
76	0x3e7eb13b	0.24872296
77	0xbc8c68a3	-0.017139738
78	0xbdc7748b	-0.09739026
79	0x3e8e058f	0.27738616
80	0xbe387fd8	-0.18017519
81	0xbdf7e13d	-0.12103508
82	0xbdcd7531	-0.10032118
83	0xbe53263e	-0.20620057
84	0xbe173a94	-0.1476844
85	0xbd972921	-0.073808916
86	0x3cd468eb	0.025928935
87	0xbe363983	-0.17795376
88	0xbb8f9328	-0.004381556
89	0x3e977d0c	0.2958759
90	0xbba5e71a	-0.00506295
91	0xbd03bc5c	-0.032162055
92	0xbe987ca5	-0.29782596
93	0xbe50e02d	-0.20398016
94	0x3e0c095e	0.13675448
95	0x3e28a0ae	0.16467544
96	0xbe8aaef2	-0.27086598
97	0x3d6b7e51	0.05749351
98	0x3d52db7d	0.05147885
99	0xbde22c8a	-0.110436514
100	0x3e69b8b1	0.2282436
101	0x3d14f1ce	0.036363415
102	0xbe5f1a14	-0.21787292
103	0x3e6bb9b8	0.23020065
104	0x3e018581	0.12648584
105	0xbe1499b1	-0.14511754
106	0x3c730262	0.014832111
107	0x3e5183fc	0.20460504
108	0x3e6d845b	0.23195021
109	0x3e164938	0.14676368
110	0x3dba11fe	0.09085463
111	0xbc063231	-0.0081906775
112	0x3d6e53e6	0.05818548
113	0xbe5c50c5	-0.21515186
114	0xbabd872e	-0.0014459842
115	0xbe97ae66	-0.29625243
116	0x3e394b94	0.18095237
117	0xbe41e2f2	-0.18934229
118	0xbe40f31a	-0.18842736
119	0x3e7b6507	0.24550258
120	0xbdd00e0d	-0.1015893
121	0xbe4acbb8	-0.19804275
122	0xbe79a4f3	-0.2437933
123	0x3df234c5	0.11826471
124	0xbe888950	-0.2666726
125	0x3e69022c	0.22754735
126	0x3db7f21c	0.089817256
127	0x3e8e724e	0.27821583
128	0xbe02d429	-0.12776245
129	0xbe846c73	-0.2586399
130	0xbd29aa35	-0.041422088
131	0x3e5bce99	0.2146553
132	0xbe080599	-0.13283385
133	0xbe8467b7	-0.25860378
134	0x3e6e4af3	0.23270778
135	0x3e4da41e	0.20082137
136	0x3e78ac10	0.24284387
137	0x3e44822c	0.19190282
138	0x3c2a92d1	0.01041098
139	0xbe6c0a61	-0.23050834
140	0xbe4b424e	-0.19849512
141	0xbe01230d	-0.12611027
142	0xbe3fd002	-0.18731692
143	0xbe68e1a0	-0.22742319
144	0x3e5dcd2f	0.21660303
145	0x3e56b192	0.20966175
146	0xbe3ceb3a	-0.18449107
147	0xbc33b172	-0.010967599
148	0x3e8a105a	0.269656
149	0x3e03fc17	0.12889133
150	0xbd841fd2	-0.06451382
151	0xbdbc73bf	-0.09201764
152	0x3e1f7f7c	0.15575975
153	0xbdf7fc07	-0.12108617
154	0xbe55768e	-0.20846006
155	0xbd9973d5	-0.07492796
156	0x3e37af99	0.17938079
157	0xbdd933d5	-0.10605589
158	0xbe4b550f	-0.19856666
159	0xbdd1a725	-0.102369584
160	0xbdccb718	-0.0999586
161	0xbe4cc6ba	-0.19997683
162	0x3b90f87e	0.004424154
163	0x3e20fe40	0.15721989
164	0x3e8430ce	0.25818485
165	0x3db53e99	0.0884983
166	0x3e63fecc	0.22265166
167	0x3dd5e747	0.10444503
168	0xbd86eaa1	-0.06587721
169	0xbe5700f5	-0.20996459
170	0xbd8802e0	-0.06641173
171	0x3e165bb8	0.14683425
172	0x3d80996c	0.06279263
173	0xbdadca63	-0.08485868
174	0xbbb1c95f	-0.0054256166
175	0x3db7e349	0.08978898
176	0xbcdbec76	-0.026846152
177	0x3e5c242d	0.21498175
178	0xbe3054c5	-0.17219837
179	0x3d28f5af	0.041249927
180	0x3e15b05f	0.14618061
181	0x3e66ddf9	0.22545613
182	0x3d2df7fc	0.042472824
183	0x3d035165	0.032060046
184	0x3e84c990	0.2593503
185	0xbe56df7b	-0.20983689
186	0xbe0553be	-0.13020226
187	0xbe2d5243	-0.16925912
188	0x3e937520	0.28800297
189	0x3ba4a5ff	0.005024671
190	0xbe663a8a	-0.22483268
191	0x3d3c8aa8	0.04603067

Transformer_model_time.encoder.bias f4 [16]
0	0xbe8dcded	-0.2769617
1	0x3e2df4b2	0.16987875
2	0x3e6fc772	0.23415926
3	0x3ddc920e	0.10770045
4	0xbd3d3e93	-0.046202254
5	0xbe1c51b3	-0.15265541
6	0x3e76082a	0.24026552
7	0xbd80e188	-0.06293017
8	0x3ddae7e3	0.1068876
9	0xbbcd18f8	-0.00625908
10	0x3e6367e7	0.22207604
11	0xbd4cf1ef	-0.050035413
12	0x3e3d4227	0.18482266
13	0xbe5a23ee	-0.21302769
14	0xbe6d5edd	-0.23180719
15	0x3d6583cc	0.056033894

Transformer_model_time.layers.0.attention.qkv_proj.weight f4 [48, 16]
0	0xbe03cbe2	-0.12870744
1	0x3ce916e1	0.028453292
2	0xbe2f3213	-0.17108946
3	0xbdabeee4	-0.08395174
4	0x3e139886	0.14413652
5	0x3e2e5970	0.17026305
6	0xbc36448f	-0.011124744
7	0x3de29e12	0.11065306
8	0x3e52a5b7	0.20571028
9	0xbe6e6455	-0.23280461
10	0xbe0b4d0a	-0.13603607
11	0x3d2f2657	0.042761173
12	0xbe20d7bb	-0.15707295
13	0xbe4bc13a	-0.19897929
14	0xbb583b82	-0.0032994454
15	0x3d7b7762	0.06139315
16	0x3e5db126	0.21649608
17	0xbe816e6e	-0.25279564
18	0xbdd813bc	-0.10550639
19	0x3d91f747	0.071272425
20	0x3e43bb51	0.19114424
21	0xbe933a15	-0.2875525
22	0x3df6a321	0.12042833
23	0x3e893a5f	0.26802346
24	0x3d77c26e	0.060488157
25	0x3da0d949	0.07853944
26	0x3dc6ecdb	0.09713145
27	0xbddc46ca	-0.107556894
28	0x3de5aa84	0.11214164
29	0x3e05d9f7	0.13071428
30	0x3b9dd0be	0.004816144
31	0xbdd8c440	-0.10584307
32	0x3e5fa487	0.21840106
33	0x3e2a9d33	0.16661529
34	0xbe98c818	-0.2984016
35	0xbbceec8b	-0.006314819
36	0xbe6d22fa	-0.23157874
37	0xbd8c2f3f	-0.06844949
38	0x3da7b42e	0.081886634
39	0xbd0ac7e6	-0.033882044
40	0x3e9a3d7f	0.30125043
41	0x3e5daa40	0.21646976
42	0xbd0a5351	-0.033770863
43	0x3e8f1710	0.27947283
44	0xbdc51d5b	-0.0962474
45	0xbcddd2ae	-0.027077999
46	0xbe0cf719	-0.13766135
47	0x3de6834d	0.112555124
48	0xbe9ba600	-0.30400085
49	0xbe786ee3	-0.2426105
50	0xbe471dbb	-0.19444935
51	0x3e10b7c3	0.141326
52	0x3d149223	0.03627218
53	0xbe849bd5	-0.2590014
54	0x3e3988cd	0.18118592
55	0x3e8a2de6	0.26988143
56	0x3e7bb3a8	0.24580252
57	0x3d536578	0.05161044
58	0xbca63872	-0.020290587
59	0xbe7b2040	-0.24524021
60	0x3d9ac2b3	0.07556667
61	0x3e998c3c	0.29989803
62	0xbdf3914d	-0.11892948
63	0xbe91f4d2	-0.28507096
64	0xbe15828c	-0.14600581
65	0x3df84e41	0.12124301
66	0xbe3e45a7	-0.18581258
67	0x3e686ee6	0.22698554
68	0x3e04d64e	0.12972376
69	0x3e1a98a3	0.15097289
70	0xbdfd830a	-0.12378509
71	0xbe0d5bd6	-0.13804564
72	0xbe6d82fc	-0.23194498
73	0x3d65cfe8	0.056106478
74	0x3e663b9b	0.22483675
75	0x3e551ab9	0.20810975
76	0x3e3bcc31	0.18339612
77	0xbe94b543	-0.29044542
78	0x3e4c8191	0.199713
79	0x3e1e556d	0.15462275
80	0x3e63d540	0.22249317
81	0xbe64293e	-0.22281358
82	0x3e867184	0.2625848
83	0xbcde85b9	-0.027163373
84	0x3db94636	0.09046595
85	0xbe58f379	-0.21186627
86	0x3d581e7b	0.052763443
87	0x3e152193	0.14563589
88	0xbca98836	-0.020694833
89	0xbe2fcb53	-0.17167406
90	0xbdc66754	-0.09687677
91	0x3d6c985f	0.0577625
92	0xbc7d8232	-0.0154729355
93	0x3d52d37f	0.05147123
94	0xbdfc5c54	-0.12322298
95	0x3e9a0f16	0.30089635
96	0x3ce25215	0.02762703
97	0xbe42b605	-0.19014747
98	0xbe0bd127	-0.13654004
99	0xbe439eaa	-0.19103494
100	0x3e826da3	0.2547427
101	0xbe6a6b56	-0.22892508
102	0x3e669690	0.22518373
103	0x3e0e7f6b	0.13915794
104	0x3d8e90a8	0.06961185
105	0x3da9afdd	0.082854964
106	0xbe8e65a7	-0.2781193
107	0x3e04387c	0.12912172
108	0xbe5e6869	-0.21719517
109	0x3e7c9cf5	0.2466925
110	0xbe90af7e	-0.2825889
111	0x3e864830	0.2622695
112	0x3e9b0780	0.3027916
113	0x3e1816e7	0.14852487
114	0xbe94a95f	-0.2903547
115	0x3e94adbc	0.290388
116	0xbe25455c	-0.1613974
117	0x3d2d7ce4	0.042355433
118	0x3e838d57	0.2569377
119	0xbd981f9c	-0.07427904
120	0x3dc74282	0.09729482
121	0x3d85c9b7	0.06532615
122	0x3e60b704	0.21944815
123	0xbe291d14	-0.16514999
124	0x3de5a2ab	0.11212667
125	0x3e3d80aa	0.18506113
126	0xbd9a28f7	-0.07527345
127	0x3e51ebe5	0.20500143
128	0xbbee6ec6	-0.007276389
129	0x3e744f12	0.23858288
130	0xbdf5448b	-0.11975964
131	0x3e484d4a	0.19560733
132	0x3e8fa92a	0.2805875
133	0x3e737356	0.23774466
134	0x3e41fe5f	0.18944691
135	0x3e8d42e7	0.27590105
136	0x3c7b3c47	0.015334195
137	0x3e9085dd	0.2822713
138	0x3e829e45	0.25511375
139	0xbdbdfed8	-0.09277123
140	0x3e58d1da	0.21173802
141	0xbda6f6fa	-0.08152576
142	0xbe6a4364	-0.2287727
143	0xbe88bcb6	-0.26706475
144	0xbe859c27	-0.26095697
145	0x3d8695bd	0.06571529
146	0x3e757e5a	0.2397398
147	0x3d886269	0.06659395
148	0x3e3d002a	0.18457094
149	0xbe831b80	-0.25606918
150	0x3cb98e2f	0.022650806
151	0x3e38f56f	0.18062375
152	0xbdf6ede8	-0.12057096
153	0x3e019969	0.12656178
154	0xbe274283	-0.16333966
155	0x3e7ad5bd	0.24495597
156	0xbe3a91ee	-0.1821973
157	0x3e173845	0.14767559
158	0xbda7eb9e	-0.08199237
159	0x3e114a6e	0.14188549
160	0x3e8b446d	0.27200642
161	0xbdb3dab5	-0.087819494
162	0xbe9473bb	-0.28994545
163	0xbd07b25b	-0.033129077
164	0xbe9dfc65	-0.30856624
165	0x3e3c7627	0.18404447
166	0x3d8c0882	0.0683756
167	0xbc0576ad	-0.00814597
168	0xbd80c7f9	-0.06288142
169	0xbd495703	-0.049155246
170	0x3e830cf0	0.25595808
171	0xbd930567	-0.07178765
172	0x3e5da812	0.21646145
173	0xbe7aab50	-0.24479413
174	0xbe937638	-0.2880113
175	0xbe46afaf	-0.19402955
176	0x3e67a31d	0.22620817
177	0xbdbf6fb1	-0.09347475
178	0xbe0a22d2	-0.13489845
179	0x3d946f3d	0.072477795
180	0x3e8379ee	0.25678962
181	0xbe37e506	-0.1795846
182	0xbdf220db	-0.11822673
183	0x3dbece51	0.093166955
184	0x3e24222b	0.16028659
185	0x3d0cfb92	0.034419604
186	0xbe8e4948	-0.27790284
187	0xbe7b3373	-0.24531345
188	0xbb874129	-0.0041276407
189	0x3dd00c4b	0.10158595
190	0x3d4cf270	0.050035894
191	0xbe871642	-0.2638417
192	0x3ddcca3d	0.107807614
193	0xbc9ad48d	-0.01890018
194	0x3dd624de	0.104562506
195	0xbe531736	-0.20614323
196	0xbe07cce7	-0.13261758
197	0xbd4180ea	-0.047242083
198	0xbb7a4a67	-0.003819132
199	0x3db52587	0.088450484
200	0xbe1a5023	-0.15069632
201	0x3db3285e	0.08747934
202	0x3e28c452	0.1648114
203	0x3c819839	0.015819656
204	0xbcf265df	-0.029589592
205	0x3e7f7c18	0.24949682
206	0x3e71997d	0.23593707
207	0x3e83a56c	0.25712144
208	0xbe090695	-0.13381417
209	0x3e388e7d	0.18023105
210	0x3dbd9908	0.09257704
211	0x3e071f7b	0.13195603
212	0x3daaa9ef	0.083331935
213	0xbd8e7118	-0.06955165
214	0x3d143671	0.036184732
215	0x3e549b19	0.2076229
216	0xbe689930	-0.22714686
217	0xbe9a9d45	-0.30198112
218	0xbe5c36ac	-0.2150523
219	0xbcb7436f	-0.022371022
220	0xbdf72bcc	-0.120689005
221	0x3dd6fa02	0.10496904
222	0x3e2977ca	0.16549602
223	0x3e13c7c9	0.1443168
224	0x3d7631e3	0.06010617
225	0x3d056289	0.032564674
226	0xbe2597ed	-0.16171236
227	0x3d1f7035	0.03892537
228	0x3e20e4cc	0.15712279
229	0x3e1c8f8f	0.15289138
230	0xbe123043	-0.14276223
231	0x3db3f7dd	0.087875105
232	0xbe95d938	-0.29267287
233	0x3e7a0e7b	0.24419586
234	0x3e170520	0.14748049
235	0xbd1089fb	-0.03528784
236	0xbe51c0ce	-0.20483705
237	0x3e73c003	0.23803715
238	0xbe81e3cb	-0.25369105
239	0x3e6a15d6	0.22859892
240	0xbd9e4463	-0.077278875
241	0x3de8d222	0.11368205
242	0xbe4de63d	-0.2010736
243	0x3975f4d2	0.00023456223
244	0x3d27f745	0.0410073
245	0x3e88ceed	0.26720372
246	0xbe00834f	-0.1255009
247	0xbe753791	-0.23946978
248	0xbd7c87de	-0.06165301
249	0xbe03c619	-0.12868537
250	0xbe25f399	-0.16206206
251	0xbd9d1b54	-0.07671228
252	0xbe0983c9	-0.13429178
253	0x3e11ddf9	0.14244832
254	0xbd9df978	-0.07713598
255	0x3df2e76a	0.11860545

Transformer_model_time.layers.0.attention.qkv_proj.bias f4 [48]
0	0x3c3786b2	0.011201547
1	0x3c18604f	0.0093003055
2	0x3bc2b66e	0.0059421575
3	0xbc05d39d	-0.008168128
4	0xbb036345	-0.0020048183
5	0x3c25ffe3	0.010131809
6	0x3c328282	0.010895373
7	0xbc385907	-0.0112516945
8	0xb4530139	-1.9651351e-07
9	0x34ba83f2	3.4741203e-07
10	0x3403b926	1.2267682e-07
11	0x33d73aa9	1.0022388e-07
12	0xb2187790	-8.87475e-09
13	0xb3e2544d	-1.0539279e-07
14	0xb4c32133	-3.6345736e-07
15	0xb3f92d4a	-1.1603204e-07
16	0x3c5c276f	0.013437136
17	0xbc2d3c87	-0.010573513
18	0x3c2a3b92	0.010390179
19	0x3c0c3567	0.008557654
20	0x3c1bdf32	0.009513663
21	0xbc6fa3e8	-0.014626481
22	0x3c4e200a	0.012580881
23	0xbc214d68	-0.009845115
24	0x3c19f82b	0.009397547
25	0x3c6c78eb	0.014433126
26	0x38659ef6	5.47459e-05
27	0xba866423	-0.0010253232
28	0x3c0e2f72	0.008678304
29	0x3c23191f	0.00995472
30	0x3b406cb4	0.0029361667
31	0x3c5bfd05	0.013427024
32	0xb3811ab7	-6.01189e-08
33	0x3479db39	2.3269685e-07
34	0xb48cf63c	-2.625619e-07
35	0xb52328fa	-6.078186e-07
36	0xb26b8235	-1.3708406e-08
37	0x3429ca01	1.581284e-07
38	0x348e4e9b	2.6506754e-07
39	0xb24f7834	-1.2076317e-08
40	0x3c126183	0.008934381
41	0xbc041d5a	-0.008063639
42	0xbc60bd91	-0.013717071
43	0x3c4e420a	0.012588987
44	0xbc285c92	-0.010275977
45	0xba22f52d	-0.00062163436
46	0x3c5052d8	0.012715064
47	0xbc412efd	-0.011790988

Transformer_model_time.layers.0.attention.o_proj.weight f4 [16, 16]
0	0xbd5b80b6	-0.053589545
1	0xbea0fcd7	-0.31442901
2	0xbd65fc8c	-0.05614905
3	0x3e11f9d2	0.14255455
4	0x3ec41718	0.3829887
5	0x3e5249af	0.2053592
6	0xbdb8ad53	-0.09017434
7	0x3dbb2653	0.09138169
8	0x3ed75c9e	0.4206285
9	0xbec18dcf	-0.37803504
10	0x3e3b72e5	0.18305548
11	0xbed3bf89	-0.41357067
12	0xbe94f983	-0.29096612
13	0xbe631e2f	-0.22179483
14	0xbe887d60	-0.26658154
15	0xbece8397	-0.4033477
16	0xbec49e32	-0.38401943
17	0x3db6a58f	0.089182965
18	0xbe4faf09	-0.20281614
19	0xbe0f4090	-0.13989472
20	0xbe91cfad	-0.28478757
21	0x3eb5c171	0.35499147
22	0x3bf232c8	0.0073913075
23	0x3e33a1df	0.17542218
24	0x3e33393a	0.17502299
25	0xbdabe393	-0.08393016
26	0x3edee1e2	0.4353171
27	0x3bde1336	0.0067771925
28	0xbebc09d6	-0.36726254
29	0xbed68d07	-0.4190447
30	0x3e5c10a2	0.2149072
31	0x3ed44812	0.41461235
32	0x3e8cde02	0.2751313
33	0xbdde7968	-0.10863
34	0x3ed81174	0.42200816
35	0x3ea876f1	0.32903245
36	0x3e560557	0.20900474
37	0x3e8876cb	0.26653132
38	0x3dbba26c	0.09161839
39	0xbe7dcb99	-0.24784698
40	0x3ec83bd6	0.3910815
41	0xbe364a1e	-0.17801711
42	0xbe9550f6	-0.2916333
43	0x3e52f7f2	0.20602396
44	0xbd1bf4cc	-0.038075253
45	0x3eb53d15	0.35398164
46	0xbe5a1447	-0.21296798
47	0xbd28bb04	-0.041193977
48	0xbeabfe7f	-0.33592603
49	0x3c9fc34a	0.0195023
50	0x3e621183	0.22076993
51	0xbeac3e6d	-0.33641377
52	0xbd0573ae	-0.032581024
53	0x3e81d786	0.25359744
54	0x3e88fab9	0.26753786
55	0xbd684487	-0.056705978
56	0xbe683ab5	-0.22678645
57	0x3ca71535	0.020395854
58	0x3ea89af1	0.3293071
59	0x3c64684f	0.013940885
60	0xbe57405e	-0.21020648
61	0xbe1cbaf0	-0.15305686
62	0xbe5c1dcc	-0.21495742
63	0x3e8204d8	0.2539432
64	0x3e3b0f85	0.18267639
65	0xbe0d9fd3	-0.138305
66	0x3e9a2982	0.30109793
67	0x3eb9b2dc	0.3626927
68	0x3d991346	0.07474379
69	0xbec9a781	-0.39385608
70	0x3edfd99d	0.43720713
71	0x3bdf797c	0.006819902
72	0xbe3692be	-0.17829415
73	0x3e0b3f3e	0.13598344
74	0x3ea77307	0.32704946
75	0x3ebc02c9	0.36720875
76	0xbdc3f9c2	-0.09569122
77	0x3eb01f6e	0.3439898
78	0x3d57cde6	0.052686594
79	0xbce806ed	-0.028323615
80	0x3e512a37	0.2042626
81	0xbe0ddc28	-0.13853514
82	0xbd2fe781	-0.04294539
83	0x3dbcc191	0.09216607
84	0x3e295e16	0.16539797
85	0x3eb7bdc1	0.35886958
86	0xbe3bc862	-0.18338159
87	0xbe183cb6	-0.1486691
88	0xbdb7fbb5	-0.08983556
89	0x3ce1a52c	0.02754458
90	0xbe179385	-0.14802368
91	0x3dc581d7	0.096439056
92	0xbe7eb7c9	-0.24874796
93	0xbeafc56d	-0.3433031
94	0x3e44343b	0.1916055
95	0xbecac14b	-0.39600596
96	0xbe6dae36	-0.23210987
97	0x3e02b404	0.12763983
98	0xbed4ea57	-0.41585037
99	0x3d560913	0.052254748
100	0x3ea714c4	0.3263303
101	0xbdbd4596	-0.09241788
102	0xbeced30b	-0.40395388
103	0xbe409bbb	-0.18809406
104	0xbe8979fc	-0.2685088
105	0xbddc70c0	-0.10763693
106	0xbe10621f	-0.1409993
107	0xbecb66f6	-0.3972699
108	0xbdcd2d41	-0.10018397
109	0xbe5c0441	-0.21485998
110	0x3e82f0b5	0.2557427
111	0xbe5a79ea	-0.21335569
112	0x3e33058b	0.17482583
113	0xbd7995df	-0.060933944
114	0xbece9f8d	-0.40356103
115	0xbe2415d2	-0.16023949
116	0xbeb03632	-0.34416348
117	0x3e8e34d3	0.27774677
118	0xbe7ad718	-0.24496114
119	0xbd48620b	-0.048921626
120	0xbddbc702	-0.10731317
121	0xbd764526	-0.06012454
122	0x3e279ad2	0.16367653
123	0xbeca2bff	-0.3948669
124	0xbca2711f	-0.019829331
125	0x3cecf429	0.028925018
126	0xbdf39b0c	-0.11894807
127	0x3d81c90d	0.063371755
128	0xbe8c1cf6	-0.27365845
129	0x3ed6fb4f	0.41988608
130	0xbe8cf475	-0.27530256
131	0xbea344f7	-0.31888554
132	0x3eb0ef7c	0.34557712
133	0xbe4f7120	-0.20257998
134	0x3d6635bb	0.056203585
135	0x3e9bb7c5	0.30413643
136	0x3e8d3be5	0.27584758
137	0x3ea86a91	0.32893804
138	0xbe847d4a	-0.25876838
139	0x3d931be1	0.07183052
140	0xbcbca819	-0.023029374
141	0xbe7e85cc	-0.24855727
142	0x3e2163d0	0.15760732
143	0xbe2bfc10	-0.16795373
144	0x3e1b9842	0.151948
145	0xbcdc2451	-0.026872786
146	0x3d505b02	0.05086804
147	0xbe24f1aa	-0.16107813
148	0x3eca5cc3	0.39523897
149	0xbe86be27	-0.2631695
150	0x3d78fc63	0.06078757
151	0xbecb8666	-0.39750975
152	0xbea32c68	-0.31869817
153	0xbe78e383	-0.24305539
154	0xbea46bd6	-0.32113522
155	0x3df600c2	0.12011863
156	0xbe211bdf	-0.15733288
157	0xbebc34f5	-0.36759153
158	0x3e83cfea	0.25744563
159	0xbe9ca1af	-0.30592105
160	0x3eac3f2b	0.33641943
161	0xbe8c386b	-0.27386793
162	0x3e85ce6f	0.2613406
163	0x3e912753	0.28350314
164	0xbbd145ed	-0.0063865096
165	0x3e987e67	0.29783937
166	0xbd8715d8	-0.06595963
167	0x3e2150c9	0.15753473
168	0xbe1a8057	-0.1508802
169	0x3e4b0b59	0.19828548
170	0x3e903d7e	0.28171915
171	0xbe5373d6	-0.20649657
172	0xbdfc9b4d	-0.12334309
173	0xbedef45a	-0.435458
174	0xbe776f15	-0.24163468
175	0xbcca394c	-0.024685524
176	0xbe3687c2	-0.17825225
177	0xbe95639d	-0.2917756
178	0xbea8ea85	-0.32991424
179	0x3eaea897	0.34113
180	0xbec5a761	-0.38604262
181	0xbea36420	-0.31912327
182	0xbe2ababd	-0.16672798
183	0x3ea78182	0.32715994
184	0xbe9242b6	-0.2856652
185	0xbe2405b8	-0.16017807
186	0xbe7692a1	-0.24079372
187	0xbddbbb00	-0.10729027
188	0x3e4c6b17	0.19962727
189	0xbcead88e	-0.028667714
190	0xbe3b39d1	-0.18283774
191	0xbd1f112e	-0.038834743
192	0x3e858930	0.26081228
193	0x3e7020a2	0.23449948
194	0xbd844872	-0.0645913
195	0x3e949044	0.29016316
196	0xbe9681bf	-0.29395863
197	0xbe994138	-0.2993257
198	0x3e82b195	0.2552611
199	0x3e0e816b	0.13916557
200	0xbdfb9ac7	-0.12285381
201	0xbd8793e2	-0.06620003
202	0x3c987f0a	0.018615264
203	0xbeabcf0f	-0.3355641
204	0xbe5faa3f	-0.21842287
205	0xbe9c75a4	-0.30558503
206	0x3e3a2cac	0.18181103
207	0x3de723b9	0.112861104
208	0x3e44755a	0.19185391
209	0x3ece4872	0.40289646
210	0xbec7aa35	-0.38997045
211	0xbe3de1c7	-0.18543158
212	0xbe3b706f	-0.18304609
213	0x3e507235	0.20356067
214	0xbe37aab4	-0.17936212
215	0x3ddbb6ef	0.10728251
216	0x3ebeae15	0.3724219
217	0x3be51467	0.0069909575
218	0xbeab4e61	-0.33458236
219	0x3e2406a3	0.16018157
220	0x3e8ff4a5	0.28116336
221	0xbe02cac9	-0.12772669
222	0xbed4fc64	-0.4159881
223	0x3eb4576b	0.35222945
224	0x39fa92cd	0.0004779309
225	0xbeab7485	-0.33487335
226	0xbe09bfea	-0.13452116
227	0x3e94b301	0.2904282
228	0xbdb96336	-0.09052126
229	0xbeaba28d	-0.33522454
230	0x3e390c1b	0.18071024
231	0xbe7cd049	-0.2468883
232	0x3ce3a150	0.02778688
233	0x3d7270ac	0.059189484
234	0xbea55c8c	-0.3229717
235	0xbe440f86	-0.19146547
236	0xbea21777	-0.31658527
237	0x3eacd504	0.33756268
238	0xbb956ea0	-0.0045603067
239	0xbd731fb3	-0.059356403
240	0x3e0e9ebc	0.1392774
241	0xbea1ee68	-0.31627202
242	0xbe8c8d86	-0.27451724
243	0xbeb2c717	-0.34917518
244	0xbe8636e3	-0.2621375
245	0xbd6d662f	-0.057958778
246	0xbed5f0ba	-0.41785222
247	0xbebffdf4	-0.37498438
248	0x3e6d99bb	0.23203175
249	0xbe9505d6	-0.29106015
250	0xbec5b784	-0.38616574
251	0x3c2ed6a8	0.010671295
252	0xbed02211	-0.4065099
253	0xbebcf864	-0.36908257
254	0xbe134f8d	-0.14385815
255	0xbe14ba56	-0.14524207

Transformer_model_time.layers.0.attention.o_proj.bias f4 [16]
0	0x3c3883e0	0.01126191
1	0xbbae373e	-0.005316644
2	0xbb702483	-0.0036642856
3	0xbc64f7a5	-0.013975059
4	0x3c54a5fc	0.012979027
5	0x3c3088bb	0.010774787
6	0xbc6ea41a	-0.014565492
7	0xbc18de12	-0.009330289
8	0xbbcc109c	-0.006227566
9	0x3c7d719c	0.015468981
10	0xbc512f46	-0.0127676185
11	0x3c0b7e56	0.008514008
12	0x3bbd49b2	0.0057766074
13	0x3b8133b7	0.0039429325
14	0x3b8aa2b2	0.0042308206
15	0x3beb5632	0.007181906

Transformer_model_time.layers.0.norm1.weight f4 [16]
0	0x3f7d3c25	0.989199
1	0x3f7e1064	0.9924376
2	0x3f7ec31e	0.99516475
3	0x3f7ca37b	0.9868695
4	0x3f7dfd40	0.99214554
5	0x3f7d0ffc	0.98852515
6	0x3f81b47c	1.0133204
7	0x3f818525	1.0118757
8	0x3f7d6dd6	0.9899572
9	0x3f81e8a8	1.0149126
10	0x3f81ddb2	1.0145781
11	0x3f7f131d	0.9963854
12	0x3f7cf017	0.9880385
13	0x3f7c6f22	0.98607075
14	0x3f7c7e57	0.9863028
15	0x3f813437	1.009406

Transformer_model_time.layers.0.norm1.bias f4 [16]
0	0x3c3a77a9	0.011381068
1	0xbbfecea4	-0.0077760983
2	0xbbee2a1b	-0.007268203
3	0xbc58ef8c	-0.013240706
4	0x3c540dac	0.012942713
5	0x3bf8ea3e	0.007596283
6	0xbc74d2be	-0.014942823
7	0xbc0dc4f8	-0.008652918
8	0xba7ab7a6	-0.0009564109
9	0x3c7ed50e	0.015553726
10	0xbc57758b	-0.013150583
11	0x3c3bee0a	0.011470327
12	0x3ae5cdf1	0.0017532689
13	0xbb5f15cb	-0.003404009
14	0x3c15faca	0.009154031
15	0x3c60df36	0.013725093

Transformer_model_time.layers.0.norm2.weight f4 [16]
0	0x3f7d268f	0.9888696
1	0x3f7c7788	0.9861989
2	0x3f7dcfe3	0.99145335
3	0x3f7d030c	0.98832774
4	0x3f7ce36a	0.98784506
5	0x3f7d1f8c	0.9887626
6	0x3f81b060	1.013195
7	0x3f8075c6	1.0035942
8	0x3f7d3554	0.989095
9	0x3f81f199	1.0151855
10	0x3f81f0ca	1.0151608
11	0x3f7f7fa3	0.99804133
12	0x3f7edc8e	0.9955529
13	0x3f7de506	0.9917759
14	0x3f810352	1.0079138
15	0x3f7de02e	0.99170196

Transformer_model_time.layers.0.norm2.bias f4 [16]
0	0x3c4408a7	0.0119649535
1	0xbc5cde62	-0.013480755
2	0xbc0b911e	-0.008518485
3	0xbc4215c9	-0.011846014
4	0x3bbcabcb	0.005757784
5	0x3c68eaa3	0.014216098
6	0xbc5ac1e4	-0.013351891
7	0xbbc08712	-0.0058754766
8	0xbc145163	-0.009052607
9	0x3c7defc2	0.015499057
10	0xbc397095	-0.011318346
11	0x3c5e2e2b	0.013560812
12	0xbb84f290	-0.004057236
13	0xbae5ff30	-0.0017547365
14	0x3c353304	0.011059526
15	0x3c18dd4f	0.009330108

Transformer_model_time.layers.0.ffn.0.weight f4 [512, 16]
0	0xbe44abe1	-0.19206192
1	0xbdc8ed40	-0.09810877
2	0x3e82779f	0.2548189
3	0x3e6e5058	0.23272836
4	0x3e1861e5	0.14881094
5	0xbd9100d4	-0.07080236
6	0x3d5b3986	0.053521655
7	0x3de6354e	0.11240636
8	0xbe2ac75c	-0.16677612
9	0x3e03fdd4	0.12889796
10	0xbe773996	-0.24143061
11	0xbdfaa958	-0.12239331
12	0x3e1fc55b	0.15602629
13	0xbe0558bb	-0.13022129
14	0xbe1fda0d	-0.15610524
15	0x3e3cb591	0.18428637
16	0x3e2cd5a1	0.16878368
17	0xbc531858	-0.012884222
18	0x3e585c9d	0.21129079
19	0xbe5d892b	-0.21634357
20	0x3e022abd	0.12711616
21	0xbc587ffc	-0.013214108
22	0x3e37eb61	0.17960884
23	0x3e36e0a6	0.17859134
24	0xbe592d97	-0.21208797
25	0x3e108225	0.14112146
26	0x3de0ee82	0.10982992
27	0xbe5ec9f3	-0.21756725
28	0xbca58796	-0.020206254
29	0x3db28502	0.087167755
30	0x3e494735	0.1965607
31	0xbe11a39a	-0.14222565
32	0xbe65845b	-0.22413771
33	0xbdfacd13	-0.12246146
34	0xbd3c6590	-0.045995295
35	0xbc0ba389	-0.008522877
36	0xbdfad4b5	-0.12247602
37	0xbc194018	-0.00935366
38	0x3e182291	0.14856936
39	0xbe657ee8	-0.22411692
40	0x3d56e320	0.052462697
41	0x3e62fb68	0.22166216
42	0xbcdba646	-0.026812684
43	0xbdabfd8a	-0.08397968
44	0x3e53de70	0.20690322
45	0x3d893925	0.067003526
46	0x3db22641	0.086987026
47	0xbda05119	-0.07827968
48	0xbd84d1aa	-0.06485303
49	0x3d3ee9dd	0.04660975
50	0xbe4ffd34	-0.20311433
51	0xbd3914cf	-0.04518586
52	0x3d85cb52	0.06532921
53	0xbe355cef	-0.17711233
54	0x3d189985	0.037255783
55	0xbdabda4b	-0.083912455
56	0x3e517416	0.2045444
57	0x3e1b3de1	0.15160324
58	0x3e1959b7	0.1497563
59	0xbd51e124	-0.0512401
60	0x3ce72bbd	0.028219098
61	0xbe021a92	-0.12705448
62	0x3e67dce9	0.22642864
63	0x3cb05ee1	0.021529617
64	0xbe122868	-0.14273226
65	0x3e6ae252	0.22937897
66	0xbd8a62a9	-0.06757099
67	0x3e4dbe23	0.20092063
68	0xbe3a18eb	-0.18173568
69	0x3e4aeaf6	0.19816193
70	0xbdef0a90	-0.116719365
71	0xbe3e50e6	-0.18585548
72	0x3be94536	0.0071188463
73	0xbdfab054	-0.12240663
74	0x3e824429	0.25442627
75	0xbde6dac2	-0.112721935
76	0xbd290ac1	-0.04127002
77	0x3de9a57a	0.11408515
78	0x3e0ab577	0.13545786
79	0xbda8ac06	-0.08235936
80	0xbddb8904	-0.10719493
81	0x3e0adcca	0.13560787
82	0x3e0f0129	0.13965286
83	0xbd325b24	-0.04354395
84	0x3bf5abd1	0.0074972888
85	0x3d875f0d	0.066099264
86	0xbe269ce0	-0.1627078
87	0xbe081ed0	-0.13293004
88	0xbc00d8de	-0.007864205
89	0xbe39dc95	-0.18150552
90	0x3e69e03c	0.22839445
91	0xbe810aba	-0.25203496
92	0xbd8f9957	-0.07011669
93	0xbd254363	-0.040347468
94	0xbe3856d8	-0.18001878
95	0x3d655298	0.05598697
96	0x3d530e24	0.051527157
97	0xbe3c9ad2	-0.18418434
98	0x3e2856a4	0.16439301
99	0xbe2e508e	-0.17022917
100	0x3c6e56af	0.014547034
101	0x3e2981e1	0.16553451
102	0x3c5adc53	0.013358193
103	0x3dae2854	0.08503786
104	0x3cc25ba2	0.023725335
105	0xbc16b5b6	-0.009198597
106	0xbe6b2554	-0.22963458
107	0x3c31a071	0.010841475
108	0x3c6158b5	0.01375406
109	0x3d7ee18c	0.062226817
110	0x3dbaf4bb	0.0912871
111	0xbe3dbbc5	-0.1852866
112	0xbc8c9c7a	-0.017164458
113	0x3c1faa5f	0.0097452095
114	0x3d7dcb26	0.061961316
115	0x3e1c8ca4	0.15288025
116	0x3e45b110	0.19305825
117	0xbe1d7af0	-0.15378928
118	0xbd1a9910	-0.037743628
119	0xbcf81c64	-0.030286975
120	0xbdb25aea	-0.08708747
121	0xbe06c791	-0.13162066
122	0x3df17e8c	0.11791715
123	0x3e12fcb2	0.14354208
124	0xbe4f01d6	-0.20215544
125	0xbc2485fa	-0.010041708
126	0x3e7b2926	0.24527416
127	0x3e5049a2	0.20340589
128	0x3e6908b1	0.22757222
129	0x3ddb80c2	0.10717918
130	0x3dc70fe3	0.09719827
131	0xbe6f3e4f	-0.23363613
132	0xbe7529fe	-0.239418
133	0xbe6e9c55	-0.23301823
134	0xbd5eeea0	-0.05442679
135	0x3e204efb	0.15655129
136	0xbe34e793	-0.17666464
137	0x3e21c46a	0.15797582
138	0x3caa8c21	0.020818772
139	0xbddaec18	-0.106895626
140	0xbda5a49b	-0.080880366
141	0x3ddbe714	0.10737434
142	0xbe7216e2	-0.23641542
143	0x3df1ed47	0.11812835
144	0x3c4d97a8	0.012548365
145	0xbc2054af	-0.009785815
146	0xbe0fa10d	-0.1402628
147	0xbdee83db	-0.11646243
148	0xbd2c4fe7	-0.04206839
149	0xbe386c6a	-0.18010107
150	0x3e299040	0.16558933
151	0x3d1cc1e4	0.038270846
152	0x3e0c3d91	0.1369536
153	0xbe131286	-0.14362535
154	0xbd0ab446	-0.03386333
155	0xbd45b3a1	-0.04826701
156	0xbab97c94	-0.0014151507
157	0x3e291c50	0.16514707
158	0x3e002123	0.1251264
159	0xbdac2b44	-0.0840669
160	0x3dab3019	0.08358783
161	0xbe0161d6	-0.12634978
162	0x3ddf913f	0.10916375
163	0xbe5fe1f6	-0.21863541
164	0x3b84f652	0.004057684
165	0x3de82d41	0.113367565
166	0xbdb73dc4	-0.08947328
167	0x3e0c57dc	0.1370539
168	0xbd592233	-0.05301113
169	0xbc395f90	-0.011314288
170	0x3ded20ce	0.115785226
171	0x3d6d609c	0.057953462
172	0x3db9727a	0.09055038
173	0xbe5a8437	-0.21339498
174	0x3e526d2c	0.20549458
175	0xbd96044a	-0.07325037
176	0x3dbb5b4d	0.091482736
177	0xbe66b4e6	-0.22529945
178	0xbd6d96d0	-0.058005154
179	0xbe348d0d	-0.17631932
180	0x3e40ccd6	0.18828139
181	0x3c841deb	0.016127547
182	0xbc478d70	-0.012179717
183	0xbd44a6e6	-0.04801073
184	0x3e79f780	0.2441082
185	0xbc5804a1	-0.013184697
186	0xbe262746	-0.16225919
187	0x3df7b76c	0.12095532
188	0x3e108b48	0.14115632
189	0x3dfb4f94	0.12271038
190	0xbe3794fe	-0.1792793
191	0xbde99692	-0.11405672
192	0xbe10c5c3	-0.1413794
193	0x3e67f1f4	0.22650892
194	0x3e7beadb	0.24601309
195	0x3c8b8369	0.017030435
196	0xbe2af143	-0.16693597
197	0x3e095072	0.13409594
198	0x3e3d87ce	0.18508837
199	0xbe1440c3	-0.1447783
200	0x3e2179c6	0.15769109
201	0xbe2ac621	-0.16677143
202	0x3e1598f5	0.1460913
203	0xbd87bbd6	-0.06627624
204	0x3e388fe4	0.1802364
205	0x3e2b07d0	0.16702199
206	0x3e69fb4f	0.22849773
207	0xbb8144fc	-0.003944991
208	0xbe7bdb10	-0.24595284
209	0x3d19ccaa	0.0375487
210	0x3d867c4a	0.06566675
211	0x3e4b01a2	0.19824842
212	0x3d869e6f	0.065731876
213	0x3e6c3726	0.23067912
214	0xbe80c9ff	-0.2515411
215	0x3e495f53	0.1966527
216	0x3e3bddf5	0.18346389
217	0x3e290ffa	0.16510001
218	0x3d917f44	0.07104352
219	0xbe06f430	-0.13179088
220	0x3e331a82	0.1749058
221	0x3e396079	0.18103208
222	0x3df8c961	0.12147785
223	0xbe6f37a0	-0.23361063
224	0x3df80fb5	0.12112371
225	0xbde39f12	-0.11114325
226	0x3d52fe98	0.05151233
227	0xbdd4b699	-0.1038639
228	0x3d326c9c	0.04356061
229	0x3e5871a7	0.21137105
230	0xbd8ed750	-0.06974661
231	0x3e447953	0.19186907
232	0xbdcfd1eb	-0.101474606
233	0xbe0081e7	-0.12549554
234	0xbe5d9cf9	-0.21641912
235	0x3bc5100d	0.0060138763
236	0xbe132baa	-0.14372125
237	0x3e16a01c	0.14709514
238	0xbd409e66	-0.04702606
239	0x3e0d1d52	0.13780716
240	0xbe7b57b8	-0.24545181
241	0x3e3e3738	0.18575752
242	0xbba59f18	-0.005054366
243	0x3da0fc52	0.07860626
244	0x3d36f1de	0.044664256
245	0x3de2e74d	0.110792734
246	0xbd472590	-0.048619807
247	0xbce07272	-0.027398322
248	0xbe1fb9ad	-0.15598173
249	0xbd9bcdf6	-0.07607643
250	0xbdcb2b8f	-0.099204175
251	0xbe47edf7	-0.1952437
252	0xbd20209d	-0.039093602
253	0x3d238880	0.0399251
254	0xbe1fbf6a	-0.15600362
255	0xbdfff7df	-0.124984495

Transformer_model_time.layers.0.ffn.0.bias f4 [512]
0	0x3e140deb	0.14458434
1	0x3e5052da	0.20344105
2	0x3de386f1	0.111097224
3	0x3d5f0548	0.054448396
4	0xbd4b5896	-0.04964503
5	0xbdf77dde	-0.12084554
6	0x3c5e18ba	0.0135557
7	0x3d23bfab	0.03997771
8	0x3e65124f	0.22370265
9	0xbe20fea3	-0.15722136
10	0xbd3d2070	-0.046173513
11	0xbe2d3455	-0.16914494
12	0xbe665c8b	-0.2249624
13	0x3e2e7397	0.17036282
14	0xbdff0994	-0.12452999
15	0x3e5548ef	0.20828603
16	0x3e38a0df	0.18030117
17	0xbe3acdc1	-0.18242551
18	0x3e129104	0.14313132
19	0x3deda358	0.11603421
20	0x3e0796e8	0.1324116
21	0xbd29002e	-0.041259937
22	0x3e6bceb4	0.2302807
23	0xbcdbf431	-0.026849838
24	0xbd28f631	-0.04125041
25	0xbdce3f1d	-0.10070632
26	0x3e7987e6	0.24368247
27	0x3e2e38ce	0.17013857
28	0xbdb2863d	-0.0871701
29	0x3e1da5c8	0.15395272
30	0x3e6f3605	0.2336045
31	0xbe3f9263	-0.18708186
32	0xbe2380b2	-0.15967062
33	0xbd80039d	-0.06250689
34	0x3d3abe50	0.045591652
35	0x3e6c59d9	0.23081149
36	0x3da47a47	0.08031135
37	0x3e64625b	0.22303145
38	0xbe06cae8	-0.1316334
39	0x3d0c507c	0.034256443
40	0xbe7b5e38	-0.2454766
41	0xbe2ec5b0	-0.170676
42	0xbe46179d	-0.19344945
43	0x3e781016	0.24224886
44	0x3e53477a	0.20632735
45	0xbe445ec7	-0.1917678
46	0x3d8513f8	0.06497949
47	0xbe778c4e	-0.24174616
48	0x3c0696ca	0.008214662
49	0x3ddd0866	0.107926175
50	0x3d99360c	0.07481012
51	0xbd145a3e	-0.036218874
52	0x3e559a22	0.20859578
53	0xbdf421c1	-0.119205005
54	0xbe1c31c5	-0.1525336
55	0x3e7c77d0	0.2465508
56	0x3dced2f8	0.10098833
57	0xbe43d4ae	-0.191241
58	0xbe116be9	-0.1420132
59	0xbdca5503	-0.09879496
60	0xbd65caf2	-0.056101747
61	0xbd27c928	-0.040963322
62	0x3e5b7e71	0.21434952
63	0xbdaf87b6	-0.08570807
64	0x3e73fd64	0.2382713
65	0x3e298d42	0.16557792
66	0xbd67d18c	-0.056596324
67	0xbdba3992	-0.09093012
68	0xbe7079e7	-0.23484002
69	0x3de53d74	0.11193362
70	0x3df9ec92	0.12203325
71	0x3dbfc556	0.09363811
72	0x3db17eaf	0.08666741
73	0xbe47973f	-0.1949129
74	0xbcd01809	-0.025402086
75	0xbca8d2ec	-0.020608388
76	0xbe28f06a	-0.1649796
77	0x3e168c9f	0.1470208
78	0x3e03e751	0.12881209
79	0x3d99d84b	0.07511958
80	0x3e33a8a5	0.17544802
81	0xbd85f1d1	-0.065402634
82	0xbb3110a9	-0.0027017987
83	0x3e487708	0.19576657
84	0xbe3b63e7	-0.18299828
85	0xbe39cd9c	-0.1814484
86	0x3e6653eb	0.2249295
87	0x3e3e4745	0.18581875
88	0xbe1ddf09	-0.15417112
89	0x3bf4a48b	0.007465904
90	0x3dce2b8d	0.100669004
91	0xbe3784fd	-0.17921825
92	0x3d139339	0.036029074
93	0xbbbe8b2d	-0.005814931
94	0x3e61939b	0.22028963
95	0x3dc46ebf	0.09591436
96	0x3da9a516	0.08283441
97	0xbdfe5d5c	-0.12420151
98	0xbd1bcf4b	-0.038039487
99	0xbe37a876	-0.17935356
100	0xbe27b166	-0.16376266
101	0x3e294a2f	0.16532205
102	0x3d5caa4d	0.05387335
103	0x3e084359	0.13306941
104	0xbe77e259	-0.24207439
105	0x3e2a0977	0.16605173
106	0x3dc4e138	0.096132696
107	0x3e341219	0.17585029
108	0xbd266902	-0.040627487
109	0x3e41954c	0.18904608
110	0xbe54239b	-0.20716707
111	0xbdc32b59	-0.09529752
112	0x3dd34580	0.103159904
113	0xbe517178	-0.20453441
114	0x3d27c1f1	0.04095644
115	0xbe3213ec	-0.17390412
116	0xbe47027f	-0.19434546
117	0x3c4cbeb0	0.012496635
118	0x3dc92359	0.09821195
119	0xbe5f9708	-0.21834958
120	0x3e108073	0.141115
121	0x3d5d267c	0.05399178
122	0x3d1593c9	0.036517892
123	0x3e66523c	0.22492307
124	0x3e3d13a2	0.1846452
125	0x3e7d5473	0.24739246
126	0xbdf949f9	-0.12172312
127	0x3daeb4ef	0.08530604
128	0x3cbb2923	0.022846764
129	0xbda0e841	-0.07856799
130	0x3e126a9d	0.14298482
131	0x3e16fa57	0.14743935
132	0x3d4156d2	0.04720194
133	0x3dad5c29	0.08464844
134	0x3de94c41	0.113914974
135	0x3e089c24	0.13340813
136	0xbe23d741	-0.16000082
137	0xbe6f1bbb	-0.23350422
138	0xbe669561	-0.22517921
139	0xbe7d11e9	-0.24713863
140	0x3e2332da	0.15937367
141	0x3ccb1d1e	0.024794158
142	0xbdf1b131	-0.11801375
143	0x3d86b118	0.06576747
144	0xbe269736	-0.1626862
145	0x3e2ed479	0.1707324
146	0x3b923dbe	0.0044629266
147	0x3e69552a	0.22786394
148	0x3e355e7c	0.17711824
149	0x3e5145b7	0.2043675
150	0x3d7204b2	0.05908651
151	0xbd8cdf1b	-0.068784915
152	0x3cad24e3	0.021135753
153	0xbcf722b4	-0.030167915
154	0xbe5f38be	-0.21798989
155	0xbe6f6a4a	-0.2338039
156	0x3d98a46b	0.07453235
157	0x3e223f0a	0.1584436
158	0x3e6969f8	0.2279433
159	0x3db23bb5	0.087027945
160	0xbd742c4c	-0.059612557
161	0x3e0e716c	0.13910455
162	0x3e0ea52a	0.13930193
163	0xbdefbd76	-0.11706059
164	0xbe2a9504	-0.16658407
165	0xbe149468	-0.14509737
166	0xbc92f997	-0.01794128
167	0xbe6ee130	-0.2332809
168	0x3e634d9f	0.22197579
169	0xbda10330	-0.07861936
170	0x3d868e9a	0.06570168
171	0x3d5a3523	0.05327333
172	0x3e8203d3	0.25393543
173	0xbcf1c4d0	-0.029512793
174	0xbe05e636	-0.130761
175	0x3e0ae34c	0.1356327
176	0x3d69ff2a	0.05712811
177	0x3dd612a3	0.104527734
178	0xbc548875	-0.012971987
179	0xbe71ec7c	-0.23625368
180	0xbe386621	-0.18007709
181	0xbd5f4a9d	-0.054514516
182	0x3c8392a6	0.016061138
183	0xbdab5161	-0.08365131
184	0xbdbda75e	-0.092604384
185	0xbe0082cb	-0.12549894
186	0x3e77c9fc	0.24198145
187	0x3e80211f	0.2502527
188	0xbd904ceb	-0.07045921
189	0x3e37a674	0.1793459
190	0x3e336a48	0.17521012
191	0x3e2b0c9f	0.16704033
192	0xbdcfc7b1	-0.1014551
193	0xbd12ecc3	-0.035870325
194	0xbe24bc7e	-0.16087529
195	0xbe6f96fb	-0.23397438
196	0x3de1ff9c	0.11035082
197	0xbde75aa5	-0.11296586
198	0xbd6a0a4e	-0.057138734
199	0xbdcce4be	-0.100045666
200	0x3d17de8b	0.037077468
201	0xbbc4d49c	-0.0060067903
202	0x3e5e0469	0.2168137
203	0x3e261419	0.16218604
204	0xbd973a18	-0.073841274
205	0xbcbf9250	-0.023385197
206	0xbd61c14b	-0.05511598
207	0x3e587da0	0.21141672
208	0x3e515a46	0.20444593
209	0xbd93837b	-0.07202812
210	0xbe1f7c71	-0.15574814
211	0x3e382441	0.1798258
212	0x3e05d06e	0.13067791
213	0xbe02295b	-0.12711088
214	0x3d6f7795	0.05846365
215	0xbe5f66d4	-0.2181657
216	0xbddfa03b	-0.109192334
217	0xbe064ecc	-0.13115996
218	0xbe29617a	-0.1654109
219	0x3e553819	0.20822181
220	0xbe3a649b	-0.1820244
221	0xbe56d0a2	-0.20978025
222	0xbdb03038	-0.08602947
223	0xbe23d93c	-0.16000837
224	0xbe2423bd	-0.16029258
225	0xbe172371	-0.14759614
226	0x3ddcce86	0.10781579
227	0xbe4e59b3	-0.20151405
228	0x3d2876df	0.04112899
229	0xbe0ba79d	-0.13638158
230	0xbe8218a9	-0.2540944
231	0x3e64bb92	0.22337177
232	0x3e5adb7b	0.21372788
233	0xbe5ac985	-0.21365936
234	0x3e79cec7	0.24395286
235	0x3d1426c5	0.036169786
236	0x3e1ba340	0.15198994
237	0x3bde55c4	0.0067851264
238	0x3d212e34	0.039350703
239	0x3e3483d7	0.17628418
240	0x3dd4a436	0.10382883
241	0x3da7ed6d	0.08199582
242	0x3c26471f	0.0101487925
243	0x3e5428ac	0.2071864
244	0xbe72be33	-0.23705368
245	0x3e780abe	0.24222848
246	0x3e73d27b	0.2381076
247	0x3c840ea5	0.016120264
248	0xbde4d45d	-0.111733176
249	0x3dc0a1aa	0.09405835
250	0x3e34d608	0.17659771
251	0xbe45234f	-0.1925175
252	0x3e5cbb51	0.2155583
253	0xbd901211	-0.07034696
254	0x3dff0de0	0.12453818
255	0x3e13b494	0.14424354

Transformer_model_time.layers.0.ffn.2.weight f4 [16, 512]
0	0x3cae6a22	0.021290842
1	0xbb9936b3	-0.00467571
2	0x3d2f1127	0.042740967
3	0x3bb3152b	0.00546517
4	0x3cc17efe	0.023620125
5	0x3ca6a96d	0.02034446
6	0xbcc88c55	-0.024480978
7	0x3ca80cd8	0.020513937
8	0x3b247ab9	0.0025097562
9	0xbcfb887c	-0.03070473
10	0xba3b2b94	-0.00071399775
11	0xbd220e55	-0.03956445
12	0x3d2313d7	0.039813843
13	0x3d079ebe	0.033110373
14	0xbad433fe	-0.0016189811
15	0xbc8f85ac	-0.017519794
16	0x3d033d1d	0.032040704
17	0xbc433e13	-0.011916655
18	0x3d433f2b	0.047667664
19	0xbc73366c	-0.014844518
20	0x3cbebf82	0.023284677
21	0xbd324d6d	-0.04353087
22	0x3d31762e	0.043325596
23	0x3c067e74	0.00820886
24	0xbd075c51	-0.033047024
25	0xbc03c6cc	-0.008043002
26	0xbc8e2c58	-0.01735513
27	0x3ce4ae25	0.02791507
28	0x3bbee3fe	0.0058255186
29	0xbba83e22	-0.00513436
30	0x3c8910d2	0.016731653
31	0xbc0c7bf9	-0.008574479
32	0x3bd49dfe	0.0064885607
33	0x3bb64526	0.0055624424
34	0x3d1e3a25	0.03862967
35	0xbd14098c	-0.036141917
36	0xb9b33a2d	-0.00034184885
37	0x3d161b7e	0.036647312
38	0xbcc94e7a	-0.024573553
39	0xbcfb5ec4	-0.030684836
40	0x3c23ebf6	0.010004988
41	0xbbf28343	-0.0074009015
42	0xbd040630	-0.032232463
43	0xbcdcb29f	-0.026940642
44	0x3ba3cacc	0.0049985405
45	0xbc4263fa	-0.011864657
46	0xbd19642c	-0.037449047
47	0xbd02ce3e	-0.03193497
48	0xb9c83ccb	-0.00038192267
49	0x3c31fd97	0.010863683
50	0xbcab2bc8	-0.0208949
51	0x3ca7ae5b	0.020468881
52	0x3d03a5ca	0.03214053
53	0xbc140b86	-0.0090359505
54	0xbc94a2b5	-0.018143991
55	0x3d2bbd66	0.04192867
56	0xbd08b8a0	-0.033379197
57	0x3cad1e16	0.02113251
58	0x3bfd1fc2	0.007724733
59	0x3cc0deb7	0.023543699
60	0x3c97310b	0.018456003
61	0x39fb04d3	0.00047878045
62	0x3b04883e	0.0020222808
63	0x3c7a0287	0.015259392
64	0xbcced366	-0.025247287
65	0x3d258635	0.040411193
66	0xbce84d0a	-0.028357048
67	0x3c90ced1	0.017676743
68	0xbc387e1d	-0.0112605365
69	0xbb348954	-0.0027547674
70	0x3cfa5622	0.03055865
71	0x3c7eefd9	0.015560114
72	0x3d42ef25	0.047591347
73	0x3c252461	0.010079474
74	0xbcafc70a	-0.021457214
75	0x3bdfd66e	0.006830982
76	0xbb19f679	-0.0023492856
77	0xbd28e5b7	-0.0412347
78	0x3ca81a7c	0.020520441
79	0xbce5e189	-0.028061645
80	0x3c8ccf4b	0.017188689
81	0x3c99c11f	0.018768845
82	0xbcabb5fb	-0.020960798
83	0xba495bef	-0.00076812407
84	0xbbc6f1fc	-0.0060713273
85	0x3cfbb8cb	0.030727765
86	0xbd1499c3	-0.03627945
87	0x3c591810	0.013250366
88	0xbbc38237	-0.0059664506
89	0x3d415176	0.047196828
90	0x3d190f46	0.03736808
91	0xbc2ab2ef	-0.010418638
92	0xbb83026c	-0.0039980914
93	0xbc0d3fd8	-0.008621179
94	0xbcdcd87d	-0.026958698
95	0xbca36501	-0.019945623
96	0x3cbe6739	0.02324258
97	0x3c973b9e	0.018461045
98	0x3c922993	0.01784209
99	0x3c75d208	0.015003689
100	0xbd629cd2	-0.055325337
101	0xbcf344cc	-0.02969589
102	0xbd108caf	-0.035290416
103	0x3d1d17ca	0.038352765
104	0x3ce8fe36	0.02844153
105	0x3c7ad713	0.015310067
106	0x3bb6bdc4	0.005576821
107	0x3d15d6e4	0.03658189
108	0xbcbf2201	-0.023331644
109	0xbc4c5b3c	-0.012472924
110	0xbcbd857c	-0.02313494
111	0x3cb3eaf3	0.021962618
112	0xbd0e6d9e	-0.034772508
113	0x3a453fdf	0.0007524471
114	0x3cf09474	0.029367663
115	0x3ce47355	0.027887026
116	0x3cb72aed	0.022359336
117	0xbc5bc455	-0.013413508
118	0x3d376c12	0.0447808
119	0xbccf5e17	-0.02531342
120	0xbc7cba8b	-0.015425335
121	0x3c3ee499	0.011651182
122	0xbb113ea8	-0.002216259
123	0x3c32743f	0.010891973
124	0x3d0bb88c	0.034111544
125	0xbcdfc0cd	-0.027313614
126	0x3bcbfafa	0.006224987
127	0xbcdc2567	-0.026873304
128	0x3c24fa20	0.0100694
129	0xbc63d5ba	-0.013905937
130	0x3c39ca34	0.011339713
131	0x3c6821b8	0.014168195
132	0xbcb7a878	-0.0224192
133	0xbc7c914c	-0.015415501
134	0xbd490670	-0.049078405
135	0x3c3d6a6d	0.011561018
136	0x3cf369db	0.029713562
137	0xbbe0e864	-0.0068636406
138	0xba45f1ac	-0.00075509655
139	0xbc80012d	-0.01562556
140	0x3ce57634	0.028010465
141	0xbcb1987b	-0.021679154
142	0xbaada72c	-0.0013248674
143	0xbd2caebb	-0.042158823
144	0xbc70f394	-0.014706511
145	0x3ceb9a61	0.028760137
146	0x3c0d1bec	0.008612614
147	0xbc922e66	-0.01784439
148	0xbc901c52	-0.01759163
149	0x3b32d59e	0.002728797
150	0xbc026090	-0.007957593
151	0xbcd717d8	-0.026256487
152	0xbcf7e7f8	-0.030261979
153	0x3d13366b	0.03594057
154	0x3c4df9fe	0.01257181
155	0x3cd82aa3	0.026387518
156	0x3b619b39	0.0034424795
157	0xbd1d9552	-0.03847248
158	0x3bcac20d	0.0061876834
159	0x3cecc1dc	0.028901033
160	0x3b8ab7e8	0.004233349
161	0x3d0dc717	0.034613695
162	0xbce927bf	-0.028461335
163	0x3cb2ada3	0.021811312
164	0xbd0dc4f5	-0.03461166
165	0x3bb7590c	0.005595332
166	0x3cebc51a	0.028780509
167	0xbca9ff6b	-0.020751676
168	0xbbe4d887	-0.00698382
169	0x3d1df2be	0.038561575
170	0x3c4cc27b	0.01249754
171	0x3d1a83cf	0.03772336
172	0xbd21c975	-0.039498765
173	0xbbb404b3	-0.0054937243
174	0xbc9d29b2	-0.019184921
175	0xbbcb9e28	-0.006213922
176	0x3d27720c	0.040880248
177	0x3cebf7c4	0.028804667
178	0xbcf8668b	-0.030322334
179	0x3b25766b	0.0025247585
180	0xba8b2d33	-0.0010618329
181	0xbb444740	-0.0029949695
182	0xbc770e0c	-0.015079033
183	0xbc8d771f	-0.017268715
184	0x3c38b65c	0.011273947
185	0xbd260cb1	-0.040539447
186	0x3ca358c6	0.019939791
187	0x3d07b537	0.033131804
188	0x3d43392e	0.047661953
189	0x3d130522	0.035893567
190	0xbd3a380b	-0.045463603
191	0x3d2b13e5	0.04176702
192	0x3d0dc5e5	0.034612555
193	0xbc5abecd	-0.0133511545
194	0x3d1026d1	0.03519327
195	0x3cbadbf9	0.02280997
196	0xbcf9adf1	-0.03047845
197	0x3c850e39	0.016242133
198	0x3cfa0be0	0.03052324
199	0x3c27ce60	0.010242075
200	0xbcbef715	-0.023311177
201	0xbc8a3cab	-0.016874632
202	0x3c18672e	0.009301944
203	0xbb8b6d35	-0.004254962
204	0x3d3eeced	0.04661267
205	0xbbac3aa9	-0.0052560163
206	0x3d15a6e0	0.036536098
207	0x3932c396	0.00017048264
208	0x3d5c9c5d	0.053860057
209	0xbca72fa6	-0.020408463
210	0x3ce4b6a8	0.027919129
211	0xbd06d2f1	-0.032916013
212	0x3c0f3537	0.008740715
213	0x3d0ff70e	0.03514772
214	0x3cf8a6ec	0.030353032
215	0x3d2a979a	0.041648485
216	0x3d24cd00	0.040234566
217	0xbd0c1622	-0.034200795
218	0xbc21cfaf	-0.009876176
219	0x3cc1f8f6	0.023678284
220	0xbb18a0a0	-0.00232891
221	0x3d0135ce	0.031545453
222	0xbc7594b6	-0.014989069
223	0x3cee4ef5	0.029090384
224	0xbb7bd281	-0.003842503
225	0xbd331fe0	-0.04373157
226	0xbcec238b	-0.028825542
227	0x3b39e262	0.0028363694
228	0x3b914c75	0.004434163
229	0x3cd400e6	0.025879335
230	0xbd3604af	-0.04443806
231	0xbbbcbda4	-0.0057599116
232	0x3b70da7f	0.0036751328
233	0x3d198c37	0.037487235
234	0xbc09fada	-0.008421624
235	0x3d020d71	0.0317511
236	0x3d1df17e	0.038560383
237	0xbd3b5994	-0.045739725
238	0xbc1cf627	-0.009580172
239	0xbba7eea2	-0.005124883
240	0xbd29d445	-0.0414622
241	0x3b5c575c	0.0033621406
242	0x3d08792a	0.033318676
243	0x3d1295d0	0.035787404
244	0xbd560e4d	-0.052259732
245	0x3d17409d	0.036926854
246	0x3cff9fb7	0.031204088
247	0x3d1b88e5	0.03797235
248	0xbd0d74af	-0.034535106
249	0x3d30c910	0.0431605
250	0xbcbfda4d	-0.023419524
251	0x3b5ecbc8	0.0033995975
252	0xbc85713b	-0.016289344
253	0x3d13b78f	0.036063727
254	0x3cefdcfa	0.029280175
255	0xbd22507d	-0.03962754

Transformer_model_time.layers.0.ffn.2.bias f4 [16]
0	0xbb4d78f2	-0.0031352607
1	0x3d00b6ef	0.03142446
2	0xbd20a3e9	-0.039218817
3	0xbd5a76dc	-0.05333601
4	0x3d5005ca	0.05078677
5	0x3d2be8b5	0.041969974
6	0xbc9fc2bc	-0.019502036
7	0x3d0e0339	0.034671042
8	0xba71c7bb	-0.00092231826
9	0x3cdf1648	0.027232304
10	0xbc356ea0	-0.011073738
11	0x3d12663d	0.035742033
12	0x3d26b95d	0.04070412
13	0xbc68de35	-0.014213135
14	0xbd0a63f9	-0.033786748
15	0xbcbe948a	-0.023264188

Transformer_model_time.layers.1.attention.qkv_proj.weight f4 [48, 16]
0	0xbd764b01	-0.060130123
1	0x3e8611d4	0.26185477
2	0x3e186b2e	0.14884636
3	0x3e8414e9	0.25797203
4	0xbe8ecbef	-0.27889964
5	0xbe527942	-0.20554069
6	0xbddb6fd7	-0.10714691
7	0xbbc49794	-0.005999515
8	0x3cffb670	0.031214923
9	0x3e1c2533	0.15248565
10	0xbe199456	-0.14997992
11	0xbe43c259	-0.19117106
12	0x3d7e0b8d	0.062022734
13	0xbe06b252	-0.13153961
14	0xbe442acb	-0.19156949
15	0xbbfc7ed6	-0.0077055497
16	0xbe67ed53	-0.22649126
17	0x3e935438	0.2877519
18	0x3d0d760d	0.03453641
19	0x3e975a8c	0.2956127
20	0x3e93f05f	0.28894326
21	0xbde6ea7a	-0.112751916
22	0xbe16a2da	-0.1471056
23	0x3e6de58e	0.232321
24	0x3c7daac9	0.015482613
25	0xbe70e4d7	-0.23524795
26	0x3e98f673	0.29875526
27	0x3e11c550	0.14235425
28	0xbe0372d9	-0.1283678
29	0x3e8d84cd	0.2764038
30	0x3d8c9c91	0.068658
31	0x3ca7fe31	0.02050695
32	0x3def88ea	0.11696036
33	0x3e9864ce	0.29764408
34	0xbe235d56	-0.15953574
35	0xbe6c4db1	-0.23076512
36	0xbe9165b3	-0.28397903
37	0x3d7d6b96	0.06187018
38	0x3c8f4345	0.017488131
39	0x3ced6a04	0.028981216
40	0x3e8d67b1	0.27618173
41	0xbdef24e5	-0.11676959
42	0xbca05983	-0.019573933
43	0xbd6e9aff	-0.058253285
44	0xbe4f3f6b	-0.20239036
45	0x3e72544c	0.23664969
46	0x3e9f947f	0.3116798
47	0x3e8a8517	0.27054664
48	0xbe401da5	-0.18761308
49	0x3e84916f	0.25892207
50	0x3e1d910b	0.15387361
51	0x3e8a9375	0.27065626
52	0x3d021757	0.03176054
53	0x3c3c9751	0.011510686
54	0xbe77870c	-0.2417261
55	0x3d4deadb	0.050272804
56	0xbdc17674	-0.09446421
57	0x3a0e47f3	0.00054275914
58	0x3e86c0cd	0.2631897
59	0x3e703ed1	0.23461463
60	0xbc696cca	-0.014247129
61	0xbe454c51	-0.19267394
62	0xbe8ddba0	-0.27706623
63	0x3e69cb83	0.2283154
64	0x3dc83bb3	0.09777012
65	0x3d51e9e1	0.051248435
66	0x3e577946	0.21042356
67	0x3d04427e	0.032289974
68	0xbe9203a8	-0.28518414
69	0xbb226635	-0.0024780158
70	0xbe7f962e	-0.24959633
71	0xbe5053b6	-0.20344433
72	0xbe7cd1a8	-0.24689353
73	0xbad4d6ef	-0.0016238372
74	0x3dc76d7c	0.09737679
75	0xbe3ae485	-0.18251236
76	0xbe9685e7	-0.29399034
77	0xbe7b0acc	-0.24515837
78	0x3d976029	0.07391388
79	0x3e878e2f	0.26475665
80	0x3cbe7bc6	0.02325238
81	0x3e63d357	0.22248589
82	0x3e979df8	0.29612708
83	0x3d5314d4	0.051533535
84	0x3e7a465c	0.24440902
85	0x3e820f37	0.25402233
86	0xbe90389b	-0.28168187
87	0xbd54660d	-0.051855136
88	0xbe637e05	-0.22216041
89	0xbe015413	-0.12629728
90	0xbe5a40c3	-0.21313767
91	0x3b128320	0.0022355989
92	0x3dabb56d	0.083842136
93	0x3d54b1f7	0.051927533
94	0x3e91e29d	0.28493205
95	0xbe81a743	-0.25322923
96	0xbde56ee7	-0.112027936
97	0x3e641943	0.22275262
98	0x3e6e1223	0.23249106
99	0xbe41ea81	-0.18937112
100	0xbe6f96bb	-0.23397343
101	0xbcd12875	-0.025531987
102	0x3e92d1cf	0.28675696
103	0xbda63719	-0.08115978
104	0xbe0cd17e	-0.1375179
105	0x3e50e5ee	0.20400211
106	0xbda0e72f	-0.07856595
107	0xbd9c4288	-0.07629877
108	0xbdc0a143	-0.09405758
109	0x3e268749	0.16262545
110	0xbe7d9202	-0.24762729
111	0xbe09cdb3	-0.13457374
112	0x3e3cf182	0.18451503
113	0x3e3b9faf	0.18322633
114	0x3e366133	0.17810516
115	0xbe882154	-0.26587927
116	0x3e6faafe	0.23405072
117	0x3db63e09	0.08898551
118	0xbe76691a	-0.2406353
119	0xbe13045e	-0.14357135
120	0x3dbaf907	0.091295294
121	0x3dbb9bcf	0.091605775
122	0x3e93a2ff	0.28835294
123	0x3d11603b	0.035492163
124	0xbe980a25	-0.2969524
125	0x3e59449f	0.21217583
126	0x3e3645cd	0.17800064
127	0xbe96bd77	-0.29441425
128	0x3de6b834	0.11265603
129	0xbdec55d2	-0.115398064
130	0xbe6a50d9	-0.22882403
131	0x3e86187a	0.2619055
132	0x3dcf3b58	0.10118741
133	0x3d0415db	0.032247405
134	0xbe5db5c6	-0.21651372
135	0x3dde1fa7	0.10845881
136	0x3d1198dd	0.035546172
137	0x3e992c51	0.29916623
138	0xbe5f0321	-0.21778537
139	0x3d9f9db0	0.077937484
140	0x3e81fb59	0.25387076
141	0x3d34f0aa	0.044174828
142	0x3dbbd03e	0.091705784
143	0xbe56b31e	-0.20966765
144	0x3e36a3d4	0.17835933
145	0x3e52f9c9	0.20603098
146	0x3c2142aa	0.009842554
147	0xbddf44c5	-0.109017886
148	0xbe335e16	-0.1751636
149	0x3e255842	0.16146949
150	0xbe189df6	-0.14904007
151	0xbda1a7a6	-0.078933045
152	0x3e4de27b	0.20105927
153	0x3dbfd5d1	0.09366954
154	0x3df262d9	0.1183526
155	0x3e4c74aa	0.19966379
156	0xbe90885b	-0.2822903
157	0xbc391e7a	-0.01129877
158	0xbe737d1c	-0.23778194
159	0xbe8b40c9	-0.27197865
160	0xbcd8e3ed	-0.026475871
161	0x3da6890e	0.0813161
162	0x3e97f7da	0.29681283
163	0xbd474753	-0.048652004
164	0xbe8b38bc	-0.27191722
165	0xbe1927d6	-0.14956602
166	0xbe326120	-0.17419863
167	0xbe951baf	-0.29122683
168	0xbe564bc3	-0.20927338
169	0xbd4572fa	-0.048205353
170	0xbe431f1a	-0.19054833
171	0xbe70e4fd	-0.23524852
172	0xbd247c34	-0.04015751
173	0xbe06150e	-0.13093969
174	0x3dd886da	0.10572596
175	0xbe847ba8	-0.25875592
176	0xbd275b88	-0.040858775
177	0xbdc65f81	-0.09686185
178	0x3e264815	0.16238435
179	0x3cd0fe7e	0.025511976
180	0xbd8d65eb	-0.06904205
181	0x3e47a907	0.19498073
182	0xbe8f387f	-0.2797279
183	0xbd999ef9	-0.07501025
184	0x3e891651	0.2677484
185	0xbe656c7c	-0.22404665
186	0x3e34d43b	0.17659084
187	0xbe0429e4	-0.12906605
188	0xbe43ecb3	-0.19133262
189	0x3da22aa5	0.0791829
190	0x3d137c4d	0.036007214
191	0x3e115f53	0.1419652
192	0xbe915e0a	-0.2839206
193	0xbe8c1ea0	-0.27367115
194	0xbbdd9526	-0.0067621646
195	0xbd85debc	-0.06536624
196	0x3e91147b	0.28335938
197	0xbe5dfa19	-0.21677436
198	0xbe60af8b	-0.21941964
199	0xbe5300f7	-0.20605837
200	0x3e8cb219	0.27479628
201	0x3e063f77	0.13110147
202	0x3e34930e	0.17634222
203	0xbe2f1d0d	-0.17100926
204	0x3d9dc61f	0.07703804
205	0xbe8e8a69	-0.27839974
206	0xbe80149c	-0.25015724
207	0x3e5581e3	0.20850329
208	0xbdd23b8b	-0.10265263
209	0xbe5a63d2	-0.21327141
210	0xbe0f461a	-0.13991585
211	0xbd2d68f3	-0.042336415
212	0xbd4820ec	-0.04885952
213	0xbdb7df75	-0.08978168
214	0xbe0a876e	-0.13528225
215	0x3db7f844	0.089829
216	0x3de29f50	0.11065543
217	0xbd54c4b1	-0.051945392
218	0xbd6a44bb	-0.057194453
219	0x3e93a46d	0.28836384
220	0xbddb84ab	-0.10718664
221	0xbe29d19a	-0.16583863
222	0xbe3b241d	-0.18275495
223	0x3e26c629	0.1628653
224	0xbe3c6a73	-0.18399982
225	0xbe5e5ef6	-0.21715912
226	0x3e8eb016	0.27868718
227	0x3e2e36ba	0.17013064
228	0xbe451231	-0.1924522
229	0x3e89ca7d	0.269123
230	0x3e972e90	0.29527712
231	0x3dbd2d6e	0.09237181
232	0x3de94972	0.11390962
233	0xbe4f287f	-0.20230292
234	0xbe336343	-0.17518334
235	0xbe1fa20f	-0.15589164
236	0x3e1f10ad	0.15533705
237	0x3df77d18	0.120844066
238	0xbdfc067e	-0.12305926
239	0xbe44c444	-0.19215494
240	0xbe263134	-0.16229707
241	0x3c33c96b	0.010973315
242	0x3e83cbf7	0.2574155
243	0xbe4d7b4f	-0.2006657
244	0xbc9195ec	-0.017771684
245	0xbe54b175	-0.2077082
246	0xbe314560	-0.1731162
247	0x3e35ba70	0.17746902
248	0xbd7f755a	-0.062367775
249	0x3dc8dcee	0.09807764
250	0x39835885	0.0002505222
251	0x3e6daa32	0.23209456
252	0xbe728bcf	-0.23686145
253	0x3e90465f	0.2817869
254	0x3e542679	0.20717801
255	0x3e04d91e	0.12973449
